…
        },
        "id": "nHyRXcTgH0GS",
        "outputId": "e13258da-b628-42ba-ec65-e3e4c6d1b7a3"
      },
      "source": [
        "cnn.summary()"
      ],
      "execution_count": 24,
      "outputs": [
        {
          "output_type": "stream",
          "text": [
            "Model: \"sequential_2\"\n",
            "_________________________________________________________________\n",
            "Layer (type)                 Output Shape              Param #   \n",
            "=================================================================\n",
            "conv2d_12 (Conv2D)           (None, 62, 62, 32)        896       \n",
            "_________________________________________________________________\n",
            "max_pooling2d_10 (MaxPooling (None, 31, 31, 32)        0         \n",
            "_________________________________________________________________\n",
            "conv2d_13 (Conv2D)           (None, 29, 29, 64)        18496     \n",
            "_________________________________________________________________\n",
            "max_pooling2d_11 (MaxPooling (None, 14, 14, 64)        0         \n",
            "_________________________________________________________________\n",
            "conv2d_14 (Conv2D)           (None, 12, 12, 128)       73856     \n",
            "_________________________________________________________________\n",
            "max_pooling2d_12 (MaxPooling (None, 6, 6, 128)         0         \n",
            "_________________________________________________________________\n",
            "conv2d_15 (Conv2D)           (None, 4, 4, 256)         295168    \n",
            "_________________________________________________________________\n",
            "max_pooling2d_13 (MaxPooling (None, 2, 2, 256)         0         \n",
            "_________________________________________________________________\n",
            "dropout_3 (Dropout)          (None, 2, 2, 256)         0         \n",
            "_________________________________________________________________\n",
            "flatten_1 (Flatten)          (None, 1024)              0         \n",
            "_________________________________________________________________\n",
            "dense_3 (Dense)              (None, 128)               131200    \n",
            "_________________________________________________________________\n",
            "dropout_4 (Dropout)          (None, 128)               0         \n",
            "_________________________________________________________________\n",
            "dense_4 (Dense)              (None, 256)               33024     \n",
            "_________________________________________________________________\n",
            "dropout_5 (Dropout)          (None, 256)               0         \n",
            "_________________________________________________________________\n",
            "dense_5 (Dense)              (None, 1)                 257       \n",
            "_________________________________________________________________\n",
            "dense_6 (Dense)              (None, 2)                 4         \n",
            "=================================================================\n",
            "Total params: 552,901\n",
            "Trainable params: 552,901\n",
            "Non-trainable params: 0\n",
            "_________________________________________________________________\n"
          ],
          "name": "stdout"
        }
      ]
    },
    {
      "cell_type": "markdown",
…
